{"class_name": "Model", "keras_version": "2.1.2", "config": {"output_layers": [["dense_3", 0, 0]], "name": "model_1", "layers": [{"class_name": "InputLayer", "inbound_nodes": [], "config": {"batch_input_shape": [null, 256, 256, 3], "dtype": "float32", "sparse": false, "name": "input_1"}, "name": "input_1"}, {"class_name": "InputLayer", "inbound_nodes": [], "config": {"batch_input_shape": [null, 48, 19], "dtype": "float32", "sparse": false, "name": "input_2"}, "name": "input_2"}, {"class_name": "Sequential", "inbound_nodes": [[["input_1", 0, 0, {}]]], "config": [{"class_name": "Conv2D", "config": {"data_format": "channels_last", "dtype": "float32", "kernel_regularizer": null, "name": "conv2d_1", "use_bias": true, "bias_constraint": null, "filters": 32, "kernel_size": [3, 3], "bias_initializer": {"class_name": "Zeros", "config": {}}, "bias_regularizer": null, "trainable": true, "dilation_rate": [1, 1], "activation": "relu", "batch_input_shape": [null, 256, 256, 3], "kernel_initializer": {"class_name": "VarianceScaling", "config": {"scale": 1.0, "mode": "fan_avg", "seed": null, "distribution": "uniform"}}, "kernel_constraint": null, "padding": "valid", "strides": [1, 1], "activity_regularizer": null}}, {"class_name": "Conv2D", "config": {"data_format": "channels_last", "kernel_regularizer": null, "name": "conv2d_2", "use_bias": true, "bias_constraint": null, "filters": 32, "kernel_size": [3, 3], "bias_initializer": {"class_name": "Zeros", "config": {}}, "bias_regularizer": null, "trainable": true, "dilation_rate": [1, 1], "activation": "relu", "kernel_initializer": {"class_name": "VarianceScaling", "config": {"scale": 1.0, "mode": "fan_avg", "seed": null, "distribution": "uniform"}}, "kernel_constraint": null, "padding": "valid", "strides": [1, 1], "activity_regularizer": null}}, {"class_name": "MaxPooling2D", "config": {"data_format": "channels_last", "name": "max_pooling2d_1", "trainable": true, "padding": "valid", "strides": [2, 2], "pool_size": [2, 2]}}, {"class_name": "Dropout", "config": {"noise_shape": null, "trainable": true, "rate": 0.25, "name": "dropout_1", "seed": null}}, {"class_name": "Conv2D", "config": {"data_format": "channels_last", "kernel_regularizer": null, "name": "conv2d_3", "use_bias": true, "bias_constraint": null, "filters": 64, "kernel_size": [3, 3], "bias_initializer": {"class_name": "Zeros", "config": {}}, "bias_regularizer": null, "trainable": true, "dilation_rate": [1, 1], "activation": "relu", "kernel_initializer": {"class_name": "VarianceScaling", "config": {"scale": 1.0, "mode": "fan_avg", "seed": null, "distribution": "uniform"}}, "kernel_constraint": null, "padding": "valid", "strides": [1, 1], "activity_regularizer": null}}, {"class_name": "Conv2D", "config": {"data_format": "channels_last", "kernel_regularizer": null, "name": "conv2d_4", "use_bias": true, "bias_constraint": null, "filters": 64, "kernel_size": [3, 3], "bias_initializer": {"class_name": "Zeros", "config": {}}, "bias_regularizer": null, "trainable": true, "dilation_rate": [1, 1], "activation": "relu", "kernel_initializer": {"class_name": "VarianceScaling", "config": {"scale": 1.0, "mode": "fan_avg", "seed": null, "distribution": "uniform"}}, "kernel_constraint": null, "padding": "valid", "strides": [1, 1], "activity_regularizer": null}}, {"class_name": "MaxPooling2D", "config": {"data_format": "channels_last", "name": "max_pooling2d_2", "trainable": true, "padding": "valid", "strides": [2, 2], "pool_size": [2, 2]}}, {"class_name": "Dropout", "config": {"noise_shape": null, "trainable": true, "rate": 0.25, "name": "dropout_2", "seed": null}}, {"class_name": "Conv2D", "config": {"data_format": "channels_last", "kernel_regularizer": null, "name": "conv2d_5", "use_bias": true, "bias_constraint": null, "filters": 128, "kernel_size": [3, 3], "bias_initializer": {"class_name": "Zeros", "config": {}}, "bias_regularizer": null, "trainable": true, "dilation_rate": [1, 1], "activation": "relu", "kernel_initializer": {"class_name": "VarianceScaling", "config": {"scale": 1.0, "mode": "fan_avg", "seed": null, "distribution": "uniform"}}, "kernel_constraint": null, "padding": "valid", "strides": [1, 1], "activity_regularizer": null}}, {"class_name": "Conv2D", "config": {"data_format": "channels_last", "kernel_regularizer": null, "name": "conv2d_6", "use_bias": true, "bias_constraint": null, "filters": 128, "kernel_size": [3, 3], "bias_initializer": {"class_name": "Zeros", "config": {}}, "bias_regularizer": null, "trainable": true, "dilation_rate": [1, 1], "activation": "relu", "kernel_initializer": {"class_name": "VarianceScaling", "config": {"scale": 1.0, "mode": "fan_avg", "seed": null, "distribution": "uniform"}}, "kernel_constraint": null, "padding": "valid", "strides": [1, 1], "activity_regularizer": null}}, {"class_name": "MaxPooling2D", "config": {"data_format": "channels_last", "name": "max_pooling2d_3", "trainable": true, "padding": "valid", "strides": [2, 2], "pool_size": [2, 2]}}, {"class_name": "Dropout", "config": {"noise_shape": null, "trainable": true, "rate": 0.25, "name": "dropout_3", "seed": null}}, {"class_name": "Flatten", "config": {"trainable": true, "name": "flatten_1"}}, {"class_name": "Dense", "config": {"activity_regularizer": null, "name": "dense_1", "use_bias": true, "bias_constraint": null, "units": 1024, "bias_initializer": {"class_name": "Zeros", "config": {}}, "bias_regularizer": null, "trainable": true, "activation": "relu", "kernel_initializer": {"class_name": "VarianceScaling", "config": {"scale": 1.0, "mode": "fan_avg", "seed": null, "distribution": "uniform"}}, "kernel_constraint": null, "kernel_regularizer": null}}, {"class_name": "Dropout", "config": {"noise_shape": null, "trainable": true, "rate": 0.3, "name": "dropout_4", "seed": null}}, {"class_name": "Dense", "config": {"activity_regularizer": null, "name": "dense_2", "use_bias": true, "bias_constraint": null, "units": 1024, "bias_initializer": {"class_name": "Zeros", "config": {}}, "bias_regularizer": null, "trainable": true, "activation": "relu", "kernel_initializer": {"class_name": "VarianceScaling", "config": {"scale": 1.0, "mode": "fan_avg", "seed": null, "distribution": "uniform"}}, "kernel_constraint": null, "kernel_regularizer": null}}, {"class_name": "Dropout", "config": {"noise_shape": null, "trainable": true, "rate": 0.3, "name": "dropout_5", "seed": null}}, {"class_name": "RepeatVector", "config": {"n": 48, "trainable": true, "name": "repeat_vector_1"}}], "name": "sequential_1"}, {"class_name": "Sequential", "inbound_nodes": [[["input_2", 0, 0, {}]]], "config": [{"class_name": "LSTM", "config": {"dtype": "float32", "activity_regularizer": null, "name": "lstm_1", "go_backwards": false, "use_bias": true, "bias_constraint": null, "units": 128, "batch_input_shape": [null, 48, 19], "unroll": false, "recurrent_initializer": {"class_name": "Orthogonal", "config": {"gain": 1.0, "seed": null}}, "trainable": true, "bias_initializer": {"class_name": "Zeros", "config": {}}, "kernel_initializer": {"class_name": "VarianceScaling", "config": {"scale": 1.0, "mode": "fan_avg", "seed": null, "distribution": "uniform"}}, "kernel_constraint": null, "stateful": false, "recurrent_dropout": 0.0, "implementation": 1, "kernel_regularizer": null, "recurrent_activation": "hard_sigmoid", "return_state": false, "dropout": 0.0, "activation": "tanh", "bias_regularizer": null, "return_sequences": true, "recurrent_regularizer": null, "recurrent_constraint": null, "unit_forget_bias": true}}, {"class_name": "LSTM", "config": {"activity_regularizer": null, "name": "lstm_2", "go_backwards": false, "use_bias": true, "bias_constraint": null, "units": 128, "bias_initializer": {"class_name": "Zeros", "config": {}}, "unroll": false, "recurrent_initializer": {"class_name": "Orthogonal", "config": {"gain": 1.0, "seed": null}}, "trainable": true, "kernel_initializer": {"class_name": "VarianceScaling", "config": {"scale": 1.0, "mode": "fan_avg", "seed": null, "distribution": "uniform"}}, "kernel_constraint": null, "stateful": false, "recurrent_dropout": 0.0, "implementation": 1, "kernel_regularizer": null, "recurrent_activation": "hard_sigmoid", "return_state": false, "dropout": 0.0, "activation": "tanh", "bias_regularizer": null, "return_sequences": true, "recurrent_regularizer": null, "recurrent_constraint": null, "unit_forget_bias": true}}], "name": "sequential_2"}, {"class_name": "Concatenate", "inbound_nodes": [[["sequential_1", 1, 0, {}], ["sequential_2", 1, 0, {}]]], "config": {"axis": -1, "trainable": true, "name": "concatenate_1"}, "name": "concatenate_1"}, {"class_name": "LSTM", "inbound_nodes": [[["concatenate_1", 0, 0, {}]]], "config": {"activity_regularizer": null, "name": "lstm_3", "go_backwards": false, "use_bias": true, "recurrent_regularizer": null, "units": 512, "bias_initializer": {"class_name": "Zeros", "config": {}}, "unroll": false, "recurrent_initializer": {"class_name": "Orthogonal", "config": {"gain": 1.0, "seed": null}}, "trainable": true, "kernel_initializer": {"class_name": "VarianceScaling", "config": {"scale": 1.0, "mode": "fan_avg", "distribution": "uniform", "seed": null}}, "kernel_constraint": null, "stateful": false, "recurrent_dropout": 0.0, "implementation": 1, "kernel_regularizer": null, "recurrent_activation": "hard_sigmoid", "return_state": false, "dropout": 0.0, "activation": "tanh", "bias_regularizer": null, "return_sequences": true, "bias_constraint": null, "recurrent_constraint": null, "unit_forget_bias": true}, "name": "lstm_3"}, {"class_name": "LSTM", "inbound_nodes": [[["lstm_3", 0, 0, {}]]], "config": {"activity_regularizer": null, "name": "lstm_4", "go_backwards": false, "use_bias": true, "recurrent_regularizer": null, "units": 512, "bias_initializer": {"class_name": "Zeros", "config": {}}, "unroll": false, "recurrent_initializer": {"class_name": "Orthogonal", "config": {"gain": 1.0, "seed": null}}, "trainable": true, "kernel_initializer": {"class_name": "VarianceScaling", "config": {"scale": 1.0, "mode": "fan_avg", "distribution": "uniform", "seed": null}}, "kernel_constraint": null, "stateful": false, "recurrent_dropout": 0.0, "implementation": 1, "kernel_regularizer": null, "recurrent_activation": "hard_sigmoid", "return_state": false, "dropout": 0.0, "activation": "tanh", "bias_regularizer": null, "return_sequences": false, "bias_constraint": null, "recurrent_constraint": null, "unit_forget_bias": true}, "name": "lstm_4"}, {"class_name": "Dense", "inbound_nodes": [[["lstm_4", 0, 0, {}]]], "config": {"activity_regularizer": null, "name": "dense_3", "use_bias": true, "kernel_initializer": {"class_name": "VarianceScaling", "config": {"scale": 1.0, "mode": "fan_avg", "distribution": "uniform", "seed": null}}, "units": 19, "activation": "softmax", "bias_regularizer": null, "trainable": true, "bias_initializer": {"class_name": "Zeros", "config": {}}, "bias_constraint": null, "kernel_constraint": null, "kernel_regularizer": null}, "name": "dense_3"}], "input_layers": [["input_1", 0, 0], ["input_2", 0, 0]]}, "backend": "tensorflow"}